models/yolox_s_comp90_sim_INT8.onnx (onnx, 372334 bytes, 244 tensors)

/upsample/Constant_output_0 f4 [4]
000000 00 00 80 3f 00 00 80 3f 00 00 00 40 00 00 00 40
       1.0 1.0 2.0 2.0

onnx::Conv_836_scale f4 [12]
000000 64 17 39 3a be a8 89 3a fd 89 41 3a 40 90 65 3a
       0.00070606754 0.001050256 0.00073829276 0.00087571517
000010 50 fc cd 38 9d 6d c1 38 7a a6 47 3a aa 02 e1 38
       9.8221586e-05 9.223374e-05 0.00076160545 0.00010729332
000020 8d 2f 54 3a 24 ef e8 38 2c 81 51 3a e8 c2 80 39
       0.0008094244 0.000111071655 0.00079919654 0.0002455928

onnx::Conv_836_quantized i1 [12, 12, 3, 3]
000000 00 fc f7 f4 f0 e0 f2 2d 1e ff 01 01 00 fa f2 fe
       0 -4 -9 -12 -16 -32 -14 45 30 -1 1 1 0 -6 -14 -2
000010 0b 05 01 00 04 0b 18 24 0d ce dc ff ef e5 f7 19
       11 5 1 0 4 11 24 36 13 -50 -36 -1 -17 -27 -9 25
000020 0c f3 15 0d 02 f7 f4 ff 05 04 01 05 01 02 18 22
       12 -13 21 13 2 -9 -12 -1 5 4 1 5 1 2 24 34
000030 06 e1 f5 0d e5 ef 03 f7 fe f1 e9 ed 0b 39 01 02
       6 -31 -11 13 -27 -17 3 -9 -2 -15 -23 -19 11 57 1 2
000040 02 09 fb f6 fc 04 0e ff fd 09 fc 11 21 16 f5 c0
       2 9 -5 -10 -4 4 14 -1 -3 9 -4 17 33 22 -11 -64
000050 00 fa e5 f6 07 1f fd ff 21 f9 fd f4 02 03 0a ff
       0 -6 -27 -10 7 31 -3 -1 33 -7 -3 -12 2 3 10 -1
000060 03 07 fd 09 26 0b fa e2 02 ff d8 08 fb 0e 06 0b
       3 7 -3 9 38 11 -6 -30 2 -1 -40 8 -5 14 6 11
000070 e0 fd 0a fc 0c 09 09 03 0b e4 f6 04 fb 07 fe eb
       -32 -3 10 -4 12 9 9 3 11 -28 -10 4 -5 7 -2 -21
000080 f4 eb 3d 0b f2 0b ef 04 ff 06 08 d9 ff 04 0b 08
       -12 -21 61 11 -14 11 -17 4 -1 6 8 -39 -1 4 11 8
000090 09 f9 fa 08 e4 fd ff 09 0c f2 09 fc ee 40 07 fd
       9 -7 -6 8 -28 -3 -1 9 12 -14 9 -4 -18 64 7 -3
0000a0 ed ef 03 0c 04 fc df 0c 04 01 0a 07 06 01 f8 e4
       -19 -17 3 12 4 -4 -33 12 4 1 10 7 6 1 -8 -28
0000b0 04 02 fc 07 f5 ee ff 08 3f ef fc 03 ee 06 fe 08
       4 2 -4 7 -11 -18 -1 8 63 -17 -4 3 -18 6 -2 8
0000c0 f7 dd 0b 06 0a ff 03 f5 01 f9 e7 07 06 0b 04 f9
       -9 -35 11 6 10 -1 3 -11 1 -7 -25 7 6 11 4 -7
0000d0 0b f7 0d 3c ec f6 eb fd 00 fe 00 fe 17 04 fd ff
       11 -9 13 60 -20 -10 -21 -3 0 -2 0 -2 23 4 -3 -1
0000e0 03 00 fd fe ff 34 11 fd f1 04 01 fd ff 01 2e 10
       3 0 -3 -2 -1 52 17 -3 -15 4 1 -3 -1 1 46 16
0000f0 fe f3 01 02 fe f9 04 ed fa 03 00 01 fd 10 f8 02
       -2 -13 1 2 -2 -7 4 -19 -6 3 0 1 -3 16 -8 2

onnx::Conv_839_scale f4 [10]
000000 86 e0 8a 3b 90 5c af 3a 12 31 ae 3b bd 8b 98 3b
       0.004238191 0.0013379026 0.005315908 0.00465533
000010 41 10 a5 3b 6a 82 0f 3a 23 d9 df 3b 6e fc a7 3b
       0.005037338 0.00054744503 0.0068313046 0.0051265275
000020 9d 5f e1 3a 11 6d c1 3a
       0.0017194633 0.0014757236

onnx::Conv_839_quantized i1 [10, 12, 3, 3]
000000 17 01 ed 06 10 f1 f5 ff 00 f8 01 0f e8 02 16 ef
       23 1 -19 6 16 -15 -11 -1 0 -8 1 15 -24 2 22 -17
000010 00 0b 00 ff 01 ff 01 fc ff fe ff 02 fe fd 01 01
       0 11 0 -1 1 -1 1 -4 -1 -2 -1 2 -2 -3 1 1
000020 00 00 01 02 01 08 04 06 04 f9 fd fa fd 03 ff 03
       0 0 1 2 1 8 4 6 4 -7 -3 -6 -3 3 -1 3
000030 f9 fd f8 fe 02 04 00 00 01 fd fd 01 00 fd ff 03
       -7 -3 -8 -2 2 4 0 0 1 -3 -3 1 0 -3 -1 3
000040 fc 05 01 ef f7 fe f0 fc 02 ff 00 01 fe fe 00 01
       -4 5 1 -17 -9 -2 -16 -4 2 -1 0 1 -2 -2 0 1
000050 fe 11 20 1e 27 40 2d 21 28 1c ff fd 00 ff ff ff
       -2 17 32 30 39 64 45 33 40 28 -1 -3 0 -1 -1 -1
000060 01 ff 02 ed ff 03 fc 05 f8 0f ff ec 15 ef fb ef
       1 -1 2 -19 -1 3 -4 5 -8 15 -1 -20 21 -17 -5 -17
000070 1a f9 0f 04 f7 fc ee 0e ed f6 25 03 e9 1c f4 ff
       26 -7 15 4 -9 -4 -18 14 -19 -10 37 3 -23 28 -12 -1
000080 01 fd 0b 04 02 03 fc fd 04 05 09 fd ff 03 fa fe
       1 -3 11 4 2 3 -4 -3 4 5 9 -3 -1 3 -6 -2
000090 f9 09 02 f6 09 f1 05 01 fd fb 0a fc f9 fc 05 fe
       -7 9 2 -10 9 -15 5 1 -3 -5 10 -4 -7 -4 5 -2
0000a0 00 f8 00 fc 00 fe 00 08 f9 ff 05 fe ee fc f9 f4
       0 -8 0 -4 0 -2 0 8 -7 -1 5 -2 -18 -4 -7 -12
0000b0 12 16 f7 01 f9 fe fd f5 ff 08 04 08 00 0c e6 f2
       18 22 -9 1 -7 -2 -3 -11 -1 8 4 8 0 12 -26 -14
0000c0 1c d9 fd 30 c0 cb fa 05 06 f5 06 07 fe fc 04 2e
       28 -39 -3 48 -64 -53 -6 5 6 -11 6 7 -2 -4 4 46
0000d0 f9 0b 13 f1 f6 eb dd 14 02 04 02 fa fc ff 05 01
       -7 11 19 -15 -10 -21 -35 20 2 4 2 -6 -4 -1 5 1
0000e0 00 00 05 07 fe 01 02 00 f9 fb 01 03 03 fc f9 fd
       0 0 5 7 -2 1 2 0 -7 -5 1 3 3 -4 -7 -3
0000f0 00 01 fe fe 05 00 fe fe 00 03 fd 01 f7 fa 07 ff
       0 1 -2 -2 5 0 -2 -2 0 3 -3 1 -9 -6 7 -1

onnx::Conv_842_scale f4 [18]
000000 a4 8c 1f 3b b7 6e 1b 3a 4b ac 31 3a bb ba 28 3b
       0.0024345303 0.00059292786 0.0006777688 0.0025746066
000010 4b 65 7d 3b 96 d4 fc 3b 29 b9 a1 3b 1b 42 51 3b
       0.0038665112 0.007715772 0.004935403 0.003193027
000020 05 b9 48 3a ad 14 71 3b 61 cc 94 3a 23 66 9f 3b
       0.00076569646 0.0036786005 0.0011352414 0.0048644706
000030 35 1b 1c 3a 8b 2b 05 3a 07 d1 89 3a 7e 83 3b 3b
       0.0005954982 0.0005080036 0.0010514566 0.002861231
000040 83 4b 26 3a cd ca 24 3a
       0.00063436496 0.0006286323

onnx::Conv_842_quantized i1 [18, 10, 1, 1]
000000 00 00 40 01 00 04 00 cb f3 ff 11 19 c1 02 0e f9
       0 0 64 1 0 4 0 -53 -13 -1 17 25 -63 2 14 -7
000010 40 19 02 0c 07 f9 c0 e1 0b f8 c5 ce c7 14 40 f7
       64 25 2 12 7 -7 -64 -31 11 -8 -59 -50 -57 20 64 -9
000020 fe fb c4 fd f6 fc ed dc d1 ed 00 ff 40 02 f9 ff
       -2 -5 -60 -3 -10 -4 -19 -36 -47 -19 0 -1 64 2 -7 -1
000030 0f 07 00 fd f9 00 fd fd fe f3 40 fd 03 c0 fb fe
       15 7 0 -3 -7 0 -3 -3 -2 -13 64 -3 3 -64 -5 -2
000040 ec fd fc fe ff 17 fd 00 fc c0 f8 ff f5 03 f5 02
       -20 -3 -4 -2 -1 23 -3 0 -4 -64 -8 -1 -11 3 -11 2
000050 13 0a 11 40 1e f2 25 0a eb 0b 00 f9 00 00 01 c0
       19 10 17 64 30 -14 37 10 -21 11 0 -7 0 0 1 -64
000060 00 00 f2 fb fb 05 04 c0 ee f8 e5 0c d9 1a f2 fc
       0 0 -14 -5 -5 5 4 -64 -18 -8 -27 12 -39 26 -14 -4
000070 f3 ff 07 00 ff f3 c0 fd f6 04 db f4 f2 14 f9 c5
       -13 -1 7 0 -1 -13 -64 -3 -10 4 -37 -12 -14 20 -7 -59
000080 40 03 d2 c0 0b f3 ec fa 10 0a 05 dd fc 1a 06 fe
       64 3 -46 -64 11 -13 -20 -6 16 10 5 -35 -4 26 6 -2
000090 05 c0 e2 08 ff 29 01 f8 01 00 01 40 01 00 f8 fd
       5 -64 -30 8 -1 41 1 -8 1 0 1 64 1 0 -8 -3
0000a0 ee 05 c0 fb f9 04 f0 e7 0c ef 1e fb 40 09 f5 f4
       -18 5 -64 -5 -7 4 -16 -25 12 -17 30 -5 64 9 -11 -12
0000b0 28 37 14 21
       40 55 20 33

onnx::Conv_845_scale f4 [16]
000000 e5 3f c5 3a ea 59 c3 3a c8 01 12 3b 42 bb 1e 3b
       0.0015048949 0.0014904116 0.0022278894 0.00242205
000010 7d 67 bd 3b c6 c3 88 3b 28 be aa 3a 39 7e 4d 3a
       0.005780159 0.0041737286 0.0013026642 0.0007838938
000020 b6 12 f7 3b 0b 30 ec 3a e4 fc a7 3a 08 d9 05 3c
       0.0075400723 0.0018019689 0.0012816456 0.00816942
000030 28 d4 04 3b 92 66 12 3a ef 38 b7 3a 3d 7c 2c 3b
       0.0020268057 0.0005584742 0.001397876 0.002631917

onnx::Conv_845_quantized i1 [16, 10, 1, 1]
000000 11 29 c0 40 fd 28 29 f5 d5 23 0d 23 34 40 01 fa
       17 41 -64 64 -3 40 41 -11 -43 35 13 35 52 64 1 -6
000010 e7 3c db 10 f8 07 0e f9 fb f7 f2 40 e5 07 f5 0a
       -25 60 -37 16 -8 7 14 -7 -5 -9 -14 64 -27 7 -11 10
000020 0a c0 09 f3 15 0f fc fd fe 00 c0 ff fe f9 f9 2c
       10 -64 9 -13 21 15 -4 -3 -2 0 -64 -1 -2 -7 -7 44
000030 f5 09 fd ee 01 14 f0 fa c0 02 f6 05 dd f3 40 e7
       -11 9 -3 -18 1 20 -16 -6 -64 2 -10 5 -35 -13 64 -25
000040 ec f7 01 de 01 1e e6 08 00 c0 05 23 12 11 fa ff
       -20 -9 1 -34 1 30 -26 8 0 -64 5 35 18 17 -6 -1
000050 00 01 fe c0 00 02 03 05 f7 04 16 0d 31 c7 12 07
       0 1 -2 -64 0 2 3 5 -9 4 22 13 49 -57 18 7
000060 2b 40 19 10 09 f4 f8 c0 db 09 d9 db 01 03 fa 00
       43 64 25 16 9 -12 -8 -64 -37 9 -39 -37 1 3 -6 0
000070 f8 03 01 03 04 e9 c0 02 ff 11 16 40 03 16 24 ed
       -8 3 1 3 4 -23 -64 2 -1 17 22 64 3 22 36 -19
000080 19 17 17 23 dd cc f0 1f fa 11 40 0e f8 06 f9 40
       25 23 23 35 -35 -52 -16 31 -6 17 64 14 -8 6 -7 64
000090 04 e6 09 ed f2 0d fa 05 f3 c0 f7 f8 f8 fc e6 04
       4 -26 9 -19 -14 13 -6 5 -13 -64 -9 -8 -8 -4 -26 4

onnx::Conv_848_scale f4 [12]
000000 c5 31 46 3d 08 c5 ee 3c 95 9f c4 3c f5 84 bc 3c
       0.048387308 0.029146686 0.024001876 0.023012618
000010 89 a8 d5 3c 57 1a 76 3d d5 7a 10 3d e5 5c 45 3d
       0.02608134 0.060083713 0.03527339 0.048184294
000020 27 f5 42 3d a9 2a 1d 3d 0a 4e a5 3c cb c4 0e 3d
       0.047597077 0.038370762 0.020178813 0.034855645

onnx::Conv_848_quantized i1 [12, 18, 1, 1]
000000 ff fe 03 fe 01 fe 03 01 ff d6 02 fd 04 01 f9 40
       -1 -2 3 -2 1 -2 3 1 -1 -42 2 -3 4 1 -7 64
000010 fd 03 e9 ec 1f 04 fe fb 01 dd 18 0d fa 00 f6 c0
       -3 3 -23 -20 31 4 -2 -5 1 -35 24 13 -6 0 -10 -64
000020 0e 0b 28 2a 01 06 fd 0e 02 fe e8 ef 03 f9 c0 09
       14 11 40 42 1 6 -3 14 2 -2 -24 -17 3 -7 -64 9
000030 f7 3d fa 02 1c dc 02 f7 f3 02 f9 fe 03 ea f8 05
       -9 61 -6 2 28 -36 2 -9 -13 2 -7 -2 3 -22 -8 5
000040 cb fb 11 c0 fe ff c8 e2 14 d2 e8 00 09 fd 0c 40
       -53 -5 17 -64 -2 -1 -56 -30 20 -46 -24 0 9 -3 12 64
000050 1d 06 1c f8 ce 20 14 06 06 c2 02 fd 05 f2 fb 00
       29 6 28 -8 -50 32 20 6 6 -62 2 -3 5 -14 -5 0
000060 00 40 ef ff 11 00 ff 12 fd 00 0b fc 02 03 05 d3
       0 64 -17 -1 17 0 -1 18 -3 0 11 -4 2 3 5 -45
000070 09 fd c0 00 fe fa ff fb 0a ec 0e fe 26 df 01 09
       9 -3 -64 0 -2 -6 -1 -5 10 -20 14 -2 38 -33 1 9
000080 01 ff fd fe f7 ff ff 40 fc fd 08 03 06 e2 01 00
       1 -1 -3 -2 -9 -1 -1 64 -4 -3 8 3 6 -30 1 0
000090 04 02 05 c0 15 fd 24 00 ff ff fc 01 ff fc fb f7
       4 2 5 -64 21 -3 36 0 -1 -1 -4 1 -1 -4 -5 -9
0000a0 09 f9 c0 00 37 00 01 fd 03 08 fc 04 0b f7 f4 da
       9 -7 -64 0 55 0 1 -3 3 8 -4 4 11 -9 -12 -38
0000b0 06 04 1d ff ed ed 31 f6 f8 ff 03 12 c9 06 fe 0d
       6 4 29 -1 -19 -19 49 -10 -8 -1 3 18 -55 6 -2 13
0000c0 c0 c3 03 09 1c 2b ff 08 eb ff 03 fa f9 0e f8 04
       -64 -61 3 9 28 43 -1 8 -21 -1 3 -6 -7 14 -8 4
0000d0 1b 00 ec 2b fe 0a c0 f3
       27 0 -20 43 -2 10 -64 -13

onnx::Conv_851_scale f4 [18]
000000 a1 06 a2 3b 9c b6 05 3c 41 dc 5c 3c 54 52 85 3b
       0.004944638 0.008161213 0.013480247 0.004068652
000010 d9 9c 31 3c 16 e9 60 3b 5a 48 10 3c 03 9d 00 3c
       0.010840618 0.0034318618 0.008806312 0.0078499345
000020 d4 b8 c1 3b b4 60 f2 3b c7 dd aa 3b df 53 a9 3b
       0.005911926 0.007396782 0.005214426 0.005167469
000030 b7 bf 28 3c 87 50 82 3b d7 64 6a 3b 96 98 e2 3b
       0.010299615 0.0039768848 0.0035765672 0.0069151623
000040 9c 16 d0 3b 26 58 76 3c
       0.0063503515 0.015035665

onnx::Conv_851_quantized i1 [18, 12, 3, 3]
000000 fe fb 03 04 03 fc 01 0d f8 07 11 01 03 e8 0e 19
       -2 -5 3 4 3 -4 1 13 -8 7 17 1 3 -24 14 25
000010 2e 0d 01 f8 f8 f9 12 f4 fc 12 f7 f9 00 fa 05 f1
       46 13 1 -8 -8 -7 18 -12 -4 18 -9 -7 0 -6 5 -15
000020 fd 08 08 09 fa 0e 01 fb 12 fe 04 2d 12 02 07 00
       -3 8 8 9 -6 14 1 -5 18 -2 4 45 18 2 7 0
000030 fd 1a ff f7 07 e9 ff 02 06 0a f1 03 00 fb 0b fc
       -3 26 -1 -9 7 -23 -1 2 6 10 -15 3 0 -5 11 -4
000040 f5 04 04 10 fc 08 fd f8 05 07 00 08 f4 09 06 fc
       -11 4 4 16 -4 8 -3 -8 5 7 0 8 -12 9 6 -4
000050 00 09 09 03 fb d8 f6 f3 c0 ed f5 05 fb fc 07 04
       0 9 9 3 -5 -40 -10 -13 -64 -19 -11 5 -5 -4 7 4
000060 02 fd 00 f9 08 f8 f9 09 e5 f1 00 f7 00 fc 01 fd
       2 -3 0 -7 8 -8 -7 9 -27 -15 0 -9 0 -4 1 -3
000070 fd 08 01 02 02 fe fa ff 13 fe f2 04 fa f6 03 fc
       -3 8 1 2 2 -2 -6 -1 19 -2 -14 4 -6 -10 3 -4
000080 01 0b 12 f7 ff 02 fe fb f4 07 d7 03 40 f2 f2 0e
       1 11 18 -9 -1 2 -2 -5 -12 7 -41 3 64 -14 -14 14
000090 01 ff 01 00 f9 02 06 fe fb 03 03 fb 08 fd e1 03
       1 -1 1 0 -7 2 6 -2 -5 3 3 -5 8 -3 -31 3
0000a0 ff fe fe ff ff 01 f8 05 fe 00 03 00 fe fc ff 03
       -1 -2 -2 -1 -1 1 -8 5 -2 0 3 0 -2 -4 -1 3
0000b0 06 01 fc 02 00 fd 03 01 fc 08 00 fe 04 00 ff 02
       6 1 -4 2 0 -3 3 1 -4 8 0 -2 4 0 -1 2
0000c0 04 01 00 fd ff 02 00 fc 06 0b fd eb 06 04 ff 06
       4 1 0 -3 -1 2 0 -4 6 11 -3 -21 6 4 -1 6
0000d0 04 fb df f6 29 f9 fb 0c 06 27 02 09 19 0c eb c6
       4 -5 -33 -10 41 -7 -5 12 6 39 2 9 25 12 -21 -58
0000e0 ee ff 03 ff fd 00 fc 03 03 fe 03 09 04 fe 04 ff
       -18 -1 3 -1 -3 0 -4 3 3 -2 3 9 4 -2 4 -1
0000f0 01 04 fd 03 ff 00 ff 08 02 01 f8 00 ff 00 ff fe
       1 4 -3 3 -1 0 -1 8 2 1 -8 0 -1 0 -1 -2

onnx::Conv_854_scale f4 [14]
000000 4e 5c 89 3b 86 da e5 3b 4e 7f 3b 3c 29 7d c2 3b
       0.004191912 0.0070145754 0.011443926 0.0059353304
000010 9d 3a 3d 3c a5 e3 e5 3b 72 d9 ff 3b ab 8d 7a 3b
       0.011549619 0.0070156627 0.007807904 0.0038231413
000020 28 9e d3 3b e8 ba 33 3c ab 0a fb 3b b6 31 47 3c
       0.0064580627 0.010969855 0.007661184 0.012157848
000030 6a f8 53 3c cb d5 fe 3b
       0.0129376445 0.007776951

onnx::Conv_854_quantized i1 [14, 34, 1, 1]
000000 ff 16 ff 09 f4 01 06 0f e1 39 29 ff 04 11 12 f8
       -1 22 -1 9 -12 1 6 15 -31 57 41 -1 4 17 18 -8
000010 3a ff e6 00 eb df fe 0f 1b fa e7 fe 3a 07 40 02
       58 -1 -26 0 -21 -33 -2 15 27 -6 -25 -2 58 7 64 2
000020 fe e8 fe 11 04 f4 0e fa 03 12 f1 e4 f0 02 10 10
       -2 -24 -2 17 4 -12 14 -6 3 18 -15 -28 -16 2 16 16
000030 35 1e 2b 03 de dc 00 29 00 0b 0a c0 13 fd 1d 00
       53 30 43 3 -34 -36 0 41 0 11 10 -64 19 -3 29 0
000040 ca 05 ec 26 ff 02 01 f7 fe ff 01 ff cb f8 07 f8
       -54 5 -20 38 -1 2 1 -9 -2 -1 1 -1 -53 -8 7 -8
000050 ec f0 f1 06 ff 01 05 02 15 2c 00 f4 f0 40 1a ec
       -20 -16 -15 6 -1 1 5 2 21 44 0 -12 -16 64 26 -20
000060 1e fc db 04 fc d5 f8 0f fc f5 06 f2 03 04 df 10
       30 -4 -37 4 -4 -43 -8 15 -4 -11 6 -14 3 4 -33 16
000070 df f3 0b e6 ef fe cc 00 3a d4 26 c5 fe 3a 28 23
       -33 -13 11 -26 -17 -2 -52 0 58 -44 38 -59 -2 58 40 35
000080 f4 0c 16 f4 c0 23 ed f0 07 fe 01 fc 03 02 ff fe
       -12 12 22 -12 -64 35 -19 -16 7 -2 1 -4 3 2 -1 -2
000090 40 04 f1 03 14 fc 00 04 f4 fd eb d8 18 04 0b f5
       64 4 -15 3 20 -4 0 4 -12 -3 -21 -40 24 4 11 -11
0000a0 18 f4 0a 0e da f6 01 25 e9 34 08 f5 03 00 fd ff
       24 -12 10 14 -38 -10 1 37 -23 52 8 -11 3 0 -3 -1
0000b0 fe 04 3a f2 d5 03 fe 03 ff f5 00 02 c8 c4 ea 21
       -2 4 58 -14 -43 3 -2 3 -1 -11 0 2 -56 -60 -22 33
0000c0 f4 1b 3c 00 2c d5 c0 07 f5 db 23 e8 0e f9 ff f9
       -12 27 60 0 44 -43 -64 7 -11 -37 35 -24 14 -7 -1 -7
0000d0 f6 fb f6 e4 ee 07 e7 0d 02 13 f5 f8 f7 00 0f f0
       -10 -5 -10 -28 -18 7 -25 13 2 19 -11 -8 -9 0 15 -16
0000e0 d0 c0 f7 d1 09 ed 10 d1 09 f3 d9 f2 03 0d 02 da
       -48 -64 -9 -47 9 -19 16 -47 9 -13 -39 -14 3 13 2 -38
0000f0 f6 1c d6 d6 fd ea 1c 12 1a 40 f9 0f e7 25 15 f9
       -10 28 -42 -42 -3 -22 28 18 26 64 -7 15 -25 37 21 -7

onnx::Conv_857_scale f4 [18]
000000 64 a8 32 3a 2f 8c 1b 3c ad 25 9a 3a ad 86 21 3b
       0.00068152533 0.009493872 0.0011760496 0.0024646923
000010 21 34 d6 3a 3b fc 0c 3b c7 e4 81 3a 8f 90 79 3a
       0.001634244 0.0021512646 0.00099101 0.0009520137
000020 1b b7 09 3c 1c f2 92 3a e2 d9 96 3a 36 40 7d 3a
       0.008405472 0.001121107 0.0011509026 0.0009660752
000030 47 23 17 3b 42 06 1a 3b 27 a3 88 3a 27 2d d5 3a
       0.0023061798 0.0023502265 0.00104246 0.0016264067
000040 4a 98 56 3a 16 f5 29 3b
       0.0008186145 0.0025933436

onnx::Conv_857_quantized i1 [18, 14, 3, 3]
000000 26 1b 18 1b f9 07 15 0b fd 08 0f 12 f6 0d 02 0e
       38 27 24 27 -7 7 21 11 -3 8 15 18 -10 13 2 14
000010 0a f6 fc 0f 07 0a 0e 0c 00 0d 0e e9 e6 ee eb df
       10 -10 -4 15 7 10 14 12 0 13 14 -23 -26 -18 -21 -33
000020 e2 f6 de e0 fa 11 02 11 15 06 0e 0a 0c f4 0b 1c
       -30 -10 -34 -32 -6 17 2 17 21 6 14 10 12 -12 11 28
000030 11 2a 05 15 13 f2 f5 fe 0c fa 08 10 ff fc ff 0e
       17 42 5 21 19 -14 -11 -2 12 -6 8 16 -1 -4 -1 14
000040 11 15 0d 02 02 f0 ec ee 04 0e 11 1a 38 40 12 31
       17 21 13 2 2 -16 -20 -18 4 14 17 26 56 64 18 49
000050 32 0e 01 10 05 1c 26 04 38 21 f7 e4 fc fd 01 08
       50 14 1 16 5 28 38 4 56 33 -9 -28 -4 -3 1 8
000060 f8 fc 12 fc fe 03 00 08 0b 09 09 09 19 18 0d 08
       -8 -4 18 -4 -2 3 0 8 11 9 9 9 25 24 13 8
000070 2f 33 0d 29 29 df e3 f4 e3 cc f0 f1 e6 f0 ff f9
       47 51 13 41 41 -33 -29 -12 -29 -52 -16 -15 -26 -16 -1 -7
000080 f5 03 ff f9 01 08 05 02 ff fe ff fb ff 00 ff 04
       -11 3 -1 -7 1 8 5 2 -1 -2 -1 -5 -1 0 -1 4
000090 ff fe ff fe fe ff 01 06 03 00 02 01 fd fe fc fc
       -1 -2 -1 -2 -2 -1 1 6 3 0 2 1 -3 -2 -4 -4
0000a0 fd fd fc fe 01 ff fd 00 03 03 02 fc fa fe 00 fe
       -3 -3 -4 -2 1 -1 -3 0 3 3 2 -4 -6 -2 0 -2
0000b0 fc 02 04 04 04 03 04 02 05 01 fc fa f9 1d 3e 1f
       -4 2 4 4 4 3 4 2 5 1 -4 -6 -7 29 62 31
0000c0 0b 21 f8 d5 c8 c0 ff 00 01 01 04 02 fd 00 fe 02
       11 33 -8 -43 -56 -64 -1 0 1 1 4 2 -3 0 -2 2
0000d0 00 01 ff fb 02 02 04 0b fe fb 00 ff ff 04 03 08
       0 1 -1 -5 2 2 4 11 -2 -5 0 -1 -1 4 3 8
0000e0 06 fe fc fb 00 fb 00 02 02 01 fe fc ff fe fb ff
       6 -2 -4 -5 0 -5 0 2 2 1 -2 -4 -1 -2 -5 -1
0000f0 02 08 07 fe 03 ff 01 06 02 fd ff fe 05 0b 02 08
       2 8 7 -2 3 -1 1 6 2 -3 -1 -2 5 11 2 8

onnx::Conv_860_scale f4 [18]
000000 af ff ab 3a 52 25 24 3b 91 c3 c4 3a 0a 12 17 3b
       0.0013122464 0.0025046659 0.0015011897 0.0023051524
000010 7e 62 f5 3a 8d a6 47 3b 77 cb 11 3b 5c d3 c2 3a
       0.001872137 0.0030464262 0.0022246519 0.0014864015
000020 48 bf 5d 3b ec 6a e5 3a bb b2 11 3b 9e 15 b9 3a
       0.0033835936 0.0017503179 0.0022231776 0.0014120822
000030 33 c1 08 3b 49 80 08 3b 0b 66 77 3b 18 65 18 3b
       0.0020867109 0.0020828417 0.0037750031 0.0023253616
000040 4d d2 7b 3b 41 a7 a9 3a
       0.003842491 0.0012943522

onnx::Conv_860_quantized i1 [18, 18, 1, 1]
000000 20 0a 2e c6 0e 31 40 0c f8 e5 f9 f1 05 f5 2d 11
       32 10 46 -58 14 49 64 12 -8 -27 -7 -15 5 -11 45 17
000010 03 e3 f5 f5 03 40 d9 05 f0 ce fa 14 2a e1 20 f2
       3 -29 -11 -11 3 64 -39 5 -16 -50 -6 20 42 -31 32 -14
000020 f1 18 1c 34 f2 05 19 33 fb fe d0 e2 10 3f f9 c0
       -15 24 28 52 -14 5 25 51 -5 -2 -48 -30 16 63 -7 -64
000030 40 15 e1 ff f9 db 01 12 ef 01 20 03 06 fc 07 3e
       64 21 -31 -1 -7 -37 1 18 -17 1 32 3 6 -4 7 62
000040 f2 f0 eb 15 c0 f6 f7 f3 e6 01 40 fb f2 2a 25 25
       -14 -16 -21 21 -64 -10 -9 -13 -26 1 64 -5 -14 42 37 37
000050 04 ea 32 ef 1a 2d ed 06 13 01 04 fb c0 f8 ff 02
       4 -22 50 -17 26 45 -19 6 19 1 4 -5 -64 -8 -1 2
000060 0d fd fd ec fc 02 e5 12 07 08 03 06 e8 0d 14 25
       13 -3 -3 -20 -4 2 -27 18 7 8 3 6 -24 13 20 37
000070 00 2d 40 fd fa ec dd 17 18 f9 e2 ec ec 05 ed f6
       0 45 64 -3 -6 -20 -35 23 24 -7 -30 -20 -20 5 -19 -10
000080 40 05 fc 11 f2 f8 04 ef 06 e3 3d 17 39 f4 f8 00
       64 5 -4 17 -14 -8 4 -17 6 -29 61 23 57 -12 -8 0
000090 09 0a eb 40 ff 0d ee 12 04 f4 01 0c 02 0e 0f fa
       9 10 -21 64 -1 13 -18 18 4 -12 1 12 2 14 15 -6
0000a0 f9 00 f5 fb 21 e0 3b ea df f7 05 40 e8 12 de f0
       -7 0 -11 -5 33 -32 59 -22 -33 -9 5 64 -24 18 -34 -16
0000b0 f1 f7 f2 12 eb fa f4 18 e6 c0 02 e9 fc f3 03 cb
       -15 -9 -14 18 -21 -6 -12 24 -26 -64 2 -23 -4 -13 3 -53
0000c0 e1 e2 01 f8 03 02 e6 0f 32 c2 07 10 c0 2a 08 1c
       -31 -30 1 -8 3 2 -26 15 50 -62 7 16 -64 42 8 28
0000d0 34 1a f5 d1 ee f1 e5 33 04 f9 c0 cd 0a de 09 ed
       52 26 -11 -47 -18 -15 -27 51 4 -7 -64 -51 10 -34 9 -19
0000e0 f8 eb 0c fb 08 0d fd f6 f9 e3 fc f1 03 08 29 f8
       -8 -21 12 -5 8 13 -3 -10 -7 -29 -4 -15 3 8 41 -8
0000f0 d2 39 f4 00 e6 26 c0 e3 dd 18 33 fc 0d 05 f6 0d
       -46 57 -12 0 -26 38 -64 -29 -35 24 51 -4 13 5 -10 13

onnx::Conv_863_scale f4 [12]
000000 d6 3e ab 3c 13 a7 e7 3c 57 c3 46 3b 90 af f4 3b
       0.020903986 0.02827791 0.0030328834 0.0074672177
000010 e5 6d d9 3b 28 47 68 3b 8a 15 9b 3b 24 ee bc 3b
       0.006635415 0.0035442803 0.0047327923 0.0057656933
000020 9d 5e a7 3b b4 a4 05 3c c4 d8 ab 3b fb c0 b8 3b
       0.0051077143 0.008156944 0.0052443463 0.0056382394

onnx::Conv_863_quantized i1 [12, 18, 1, 1]
000000 40 ff fe fd ff 03 fe ff 03 05 07 f5 00 fd f9 03
       64 -1 -2 -3 -1 3 -2 -1 3 5 7 -11 0 -3 -7 3
000010 00 04 c0 fb fe ff 03 fd 01 02 00 f6 00 00 fe 02
       0 4 -64 -5 -2 -1 3 -3 1 2 0 -10 0 0 -2 2
000020 02 00 00 02 1e dc e8 2e 03 14 17 40 c2 d4 1b 1e
       2 0 0 2 30 -36 -24 46 3 20 23 64 -62 -44 27 30
000030 11 f1 fc e0 e3 f7 04 02 03 f0 0f d5 e3 f2 0d 05
       17 -15 -4 -32 -29 -9 4 2 3 -16 15 -43 -29 -14 13 5
000040 dd ec 0d 13 f9 f5 00 c0 0c e7 03 fa c0 04 21 f9
       -35 -20 13 19 -7 -11 0 -64 12 -25 3 -6 -64 4 33 -7
000050 f8 37 e8 0f fc f3 11 0b 0c 00 ea fe 03 e6 ff f0
       -8 55 -24 15 -4 -13 17 11 12 0 -22 -2 3 -26 -1 -16
000060 33 18 e6 fc dd 01 ef 01 ee 40 f1 06 e9 06 ea f9
       51 24 -26 -4 -35 1 -17 1 -18 64 -15 6 -23 6 -22 -7
000070 2b 1a 40 0b c1 06 d4 c6 fe ed eb 22 2d 28 e4 0b
       43 26 64 11 -63 6 -44 -58 -2 -19 -21 34 45 40 -28 11
000080 30 f4 07 06 40 03 ff f1 fa f2 fe 16 f4 03 08 e6
       48 -12 7 6 64 3 -1 -15 -6 -14 -2 22 -12 3 8 -26
000090 0b ff 23 06 d8 f3 27 00 f4 e5 d4 eb f9 04 e2 c0
       11 -1 35 6 -40 -13 39 0 -12 -27 -44 -21 -7 4 -30 -64
0000a0 fb e6 0f c0 2c ec e9 0b 0f fc 02 fe fb fb fa 06
       -5 -26 15 -64 44 -20 -23 11 15 -4 2 -2 -5 -5 -6 6
0000b0 03 0a f9 f5 fd fe c0 12 e9 ef f4 20 f8 fc 2b 09
       3 10 -7 -11 -3 -2 -64 18 -23 -17 -12 32 -8 -4 43 9
0000c0 03 07 d0 01 01 ca 25 19 f6 c3 f1 22 f7 f6 06 40
       3 7 -48 1 1 -54 37 25 -10 -61 -15 34 -9 -10 6 64
0000d0 02 3b f2 c2 3f 1a fa 17
       2 59 -14 -62 63 26 -6 23

onnx::Conv_866_scale f4 [14]
000000 f8 e4 96 3c 2b 6f ab 3c fd 50 c0 3c ab b2 e2 3c
       0.018419728 0.020927032 0.023476118 0.027673086
000010 82 fd d1 3c 47 9a 29 3c 27 7a 8e 3c d9 bc b7 3c
       0.025633577 0.010351724 0.017392231 0.022428917
000020 29 5c 67 3c 5a 3d 79 3c a8 00 aa 3c f4 88 b6 3c
       0.014121094 0.015212381 0.020752266 0.022282101
000030 0d 84 af 3c e4 d6 ac 3c
       0.021425271 0.021098562

onnx::Conv_866_quantized i1 [14, 18, 1, 1]
000000 0e 04 db ec 0e ef 14 00 28 ee f5 fb fb 06 08 40
       14 4 -37 -20 14 -17 20 0 40 -18 -11 -5 -5 6 8 64
000010 15 fe ef f0 e2 17 1d 24 0d e9 39 f1 04 09 03 40
       21 -2 -17 -16 -30 23 29 36 13 -23 57 -15 4 9 3 64
000020 0f f3 fa 19 24 e2 ee 11 eb fb e5 02 0d c0 1d df
       15 -13 -6 25 36 -30 -18 17 -21 -5 -27 2 13 -64 29 -33
000030 c9 de 06 c1 14 cd 40 08 ef 23 01 ff 0a 08 d7 fa
       -55 -34 6 -63 20 -51 64 8 -17 35 1 -1 10 8 -41 -6
000040 07 06 13 0b f2 09 eb 05 08 40 02 fa 17 28 c7 05
       7 6 19 11 -14 9 -21 5 8 64 2 -6 23 40 -57 5
000050 f6 c9 ee ea eb 25 e5 34 f5 ff fc c0 f7 2b 0c ec
       -10 -55 -18 -22 -21 37 -27 52 -11 -1 -4 -64 -9 43 12 -20
000060 2a 18 ef 26 ca fc d3 04 dc ed fc f6 e2 f0 1d f8
       42 24 -17 38 -54 -4 -45 4 -36 -19 -4 -10 -30 -16 29 -8
000070 19 f9 fe 04 e9 02 06 00 db 0a c0 0b 1f 08 cc 26
       25 -7 -2 4 -23 2 6 0 -37 10 -64 11 31 8 -52 38
000080 dc 0c 09 c6 22 c0 d0 fe fd df 34 fc 26 fe 36 0e
       -36 12 9 -58 34 -64 -48 -2 -3 -33 52 -4 38 -2 54 14
000090 de 08 2f 40 06 22 d2 e1 f6 0b f5 14 d8 f6 0c d8
       -34 8 47 64 6 34 -46 -31 -10 11 -11 20 -40 -10 12 -40
0000a0 1a f1 13 f9 e1 e3 1b f1 c5 fb 02 09 03 0b 22 40
       26 -15 19 -7 -31 -29 27 -15 -59 -5 2 9 3 11 34 64
0000b0 10 3c 1e d8 12 07 fd ea 02 e3 ed 0f ee 0a 2f 40
       16 60 30 -40 18 7 -3 -22 2 -29 -19 15 -18 10 47 64
0000c0 0e 0b 0d eb 0e 07 c0 01 01 f7 07 09 e7 ef ec 1a
       14 11 13 -21 14 7 -64 1 1 -9 7 9 -25 -17 -20 26
0000d0 0a 1f 02 02 15 fb eb 01 d9 2d 15 19 dc e5 1b f4
       10 31 2 2 21 -5 -21 1 -39 45 21 25 -36 -27 27 -12
0000e0 06 d4 04 f2 1f fa c0 d4 fb d4 e6 e4 e6 00 fc d4
       6 -44 4 -14 31 -6 -64 -44 -5 -44 -26 -28 -26 0 -4 -44
0000f0 d9 20 05 f6 e5 e0 40 f8 07 15 fb 16
       -39 32 5 -10 -27 -32 64 -8 7 21 -5 22

onnx::Conv_869_scale f4 [18]
000000 24 9e 2c 3b 79 09 ce 3a 47 be 69 3b 68 e1 29 3b
       0.0026339376 0.0015719376 0.0035666393 0.0025921706
000010 0a 31 1e 3b ec 92 5e 3b 7d d1 fd 3a 9f 3b c6 3a
       0.0024138116 0.0033962084 0.00193648 0.001512397
000020 d9 82 a3 3a f1 25 64 3b 86 c6 cd 3a a6 0b 03 3b
       0.0012474909 0.0034812654 0.0015699423 0.0019995957
000030 87 b3 6f 3a 50 80 e5 3a 62 1e a9 3a e7 8b ef 3a
       0.0009143878 0.0017509554 0.0012902732 0.0018275947
000040 c3 ca 0c 3b 61 60 a6 3a
       0.002148316 0.0012693518

onnx::Conv_869_quantized i1 [18, 14, 3, 3]
000000 0f f6 f8 37 10 ec 11 f5 f8 0f 09 fa 15 0e f9 03
       15 -10 -8 55 16 -20 17 -11 -8 15 9 -6 21 14 -7 3
000010 07 f7 0f 00 07 fe f6 f5 10 f5 03 02 01 0b 06 13
       7 -9 15 0 7 -2 -10 -11 16 -11 3 2 1 11 6 19
000020 03 01 ef 06 fd f4 02 ee fb 15 fa 01 06 0c 02 07
       3 1 -17 6 -3 -12 2 -18 -5 21 -6 1 6 12 2 7
000030 03 fa 16 f6 0a 03 fd fa f6 0b 02 f8 02 00 ff fd
       3 -6 22 -10 10 3 -3 -6 -10 11 2 -8 2 0 -1 -3
000040 0b 02 fb 01 17 03 02 fe 03 f6 0a fb 0a 1d fe 02
       11 2 -5 1 23 3 2 -2 3 -10 10 -5 10 29 -2 2
000050 09 d2 f9 00 c1 ee 24 f3 0e 10 fd fe 07 18 28 f7
       9 -46 -7 0 -63 -18 36 -13 14 16 -3 -2 7 24 40 -9
000060 fd ea f7 fa 00 0f d9 f8 40 02 08 26 02 f2 fe 0e
       -3 -22 -9 -6 0 15 -39 -8 64 2 8 38 2 -14 -2 14
000070 f9 fe 08 fd fc 00 fb 03 07 fe 1c 05 02 0c 0a 11
       -7 -2 8 -3 -4 0 -5 3 7 -2 28 5 2 12 10 17
000080 fd 14 30 1a 0d 3d 07 01 08 04 fd 0c 28 f8 03 13
       -3 20 48 26 13 61 7 1 8 4 -3 12 40 -8 3 19
000090 fe 0a 1c f3 40 1b fd 03 00 09 00 f7 e9 f2 e8 f6
       -2 10 28 -13 64 27 -3 3 0 9 0 -9 -23 -14 -24 -10
0000a0 ed f0 0d f2 eb 02 0d f4 04 0c fd f8 07 0a eb ff
       -19 -16 13 -14 -21 2 13 -12 4 12 -3 -8 7 10 -21 -1
0000b0 f0 f1 e3 11 fa ff f8 0a fb 1b 0c 0f 0f 09 18 0d
       -16 -15 -29 17 -6 -1 -8 10 -5 27 12 15 15 9 24 13
0000c0 19 2b 25 17 1d 21 ef ff ec fb 07 f1 00 e7 d0 09
       25 43 37 23 29 33 -17 -1 -20 -5 7 -15 0 -25 -48 9
0000d0 03 f6 06 1e 18 f1 1a 35 f5 0b 0a 17 13 10 19 07
       3 -10 6 30 24 -15 26 53 -11 11 10 23 19 16 25 7
0000e0 07 0a 19 ff 05 0d 12 0a 25 05 ff 08 f3 f6 dd 06
       7 10 25 -1 5 13 18 10 37 5 -1 8 -13 -10 -35 6
0000f0 e3 00 fc 05 fe 0e 21 06 1d 04 06 04 02 00 03 fa
       -29 0 -4 5 -2 14 33 6 29 4 6 4 2 0 3 -6

onnx::Conv_872_scale f4 [16]
000000 f5 0c 9a 3c 2f 47 9a 3c 28 bd 7a 3c 71 6d 96 3c
       0.018805007 0.018832771 0.015303887 0.018362733
000010 45 cb 12 3c e2 01 dd 3c 2d bc 51 3c 10 84 12 3c
       0.008959596 0.026978437 0.012801212 0.008942619
000020 fa d6 2f 3c 58 aa 24 3c ba a7 3b 3c 72 a9 bc 3c
       0.010732407 0.010050379 0.011453563 0.023030017
000030 ad e9 1c 3c 01 af 2b 3c be 59 54 3c 83 c8 31 3c
       0.009577197 0.010478736 0.012960849 0.010851028

onnx::Conv_872_quantized i1 [16, 18, 1, 1]
000000 fa c0 00 f8 ec f1 12 eb 1c 07 fb f5 02 0d fc e9
       -6 -64 0 -8 -20 -15 18 -21 28 7 -5 -11 2 13 -4 -23
000010 2e f1 08 ef f5 11 e3 f5 0b ff 24 22 02 40 20 35
       46 -15 8 -17 -11 17 -29 -11 11 -1 36 34 2 64 32 53
000020 c7 1e e6 eb f4 fc f8 f0 f4 f9 0a f5 f9 40 01 00
       -57 30 -26 -21 -12 -4 -8 -16 -12 -7 10 -11 -7 64 1 0
000030 08 d0 05 f3 0c 22 f6 16 fb c0 02 ea 06 de 12 39
       8 -48 5 -13 12 34 -10 22 -5 -64 2 -22 6 -34 18 57
000040 ef f4 ef 0c f4 16 f0 e9 ee c0 3b 0a 27 f1 09 eb
       -17 -12 -17 12 -12 22 -16 -23 -18 -64 59 10 39 -15 9 -21
000050 e6 e3 04 d8 07 2f 28 16 32 10 f6 e3 ff f8 ff 00
       -26 -29 4 -40 7 47 40 22 50 16 -10 -29 -1 -8 -1 0
000060 f0 01 f1 08 05 fa e7 17 05 c0 04 f0 c8 e5 04 0c
       -16 1 -15 8 5 -6 -25 23 5 -64 4 -16 -56 -27 4 12
000070 05 f9 f2 01 ef 02 ee 0f c0 fa f2 0e ed 15 f4 c0
       5 -7 -14 1 -17 2 -18 15 -64 -6 -14 14 -19 21 -12 -64
000080 da fc 11 1e 14 e4 15 fa f6 08 0d 1c f3 18 e2 e6
       -38 -4 17 30 20 -28 21 -6 -10 8 13 28 -13 24 -30 -26
000090 0b 08 fa fe c0 f3 1a e6 d8 13 e2 07 18 fc 00 24
       11 8 -6 -2 -64 -13 26 -26 -40 19 -30 7 24 -4 0 36
0000a0 11 ef dd f4 f5 14 eb 00 08 c9 c9 e0 f7 ca c0 cf
       17 -17 -35 -12 -11 20 -21 0 8 -55 -55 -32 -9 -54 -64 -49
0000b0 16 e1 fa f4 1d ca 07 0d 05 f0 f0 f6 ec 22 d9 15
       22 -31 -6 -12 29 -54 7 13 5 -16 -16 -10 -20 34 -39 21
0000c0 13 0f f8 13 24 c0 14 07 c0 fb 01 0a 00 ee 02 f9
       19 15 -8 19 36 -64 20 7 -64 -5 1 10 0 -18 2 -7
0000d0 f0 df 1f f5 08 f5 fd fa 1a fa 05 ec 1a 08 18 0c
       -16 -33 31 -11 8 -11 -3 -6 26 -6 5 -20 26 8 24 12
0000e0 fc 00 e1 13 18 f5 e5 f4 10 c0 f9 06 f9 ff d7 fc
       -4 0 -31 19 24 -11 -27 -12 16 -64 -7 6 -7 -1 -41 -4
0000f0 40 d2 0c fa c7 1f 1b 0c ff 0d fa 26 d7 22 df 06
       64 -46 12 -6 -57 31 27 12 -1 13 -6 38 -41 34 -33 6

onnx::Conv_875_scale f4 [18]
000000 2d 13 1d 3c 0a cc 07 3b 53 c9 79 3b 11 8c 0c 3c
       0.009587091 0.0020720982 0.0038114383 0.008578316
000010 50 d6 09 3b ec 65 19 3b 58 65 2c 3b 87 a5 42 3b
       0.0021032281 0.0023406697 0.0026305523 0.0029700713
000020 eb f5 4f 3b e4 f0 33 3b c4 3b 0b 3b 81 ab 27 3b
       0.0031732272 0.0027456814 0.002124534 0.0025584402
000030 5e d5 53 3b 0a 41 e0 3b 7a 7b c4 3b 88 cc 2a 3b
       0.0032323222 0.0068436908 0.005996165 0.0026061852
000040 52 d8 93 3b b7 e2 1e 3b
       0.0045118714 0.002424402

onnx::Conv_875_quantized i1 [18, 16, 3, 3]
000000 00 08 02 f8 02 fc ff fd 04 03 f6 f9 00 15 06 fb
       0 8 2 -8 2 -4 -1 -3 4 3 -10 -7 0 21 6 -5
000010 f6 00 fe 01 00 06 eb f5 04 0b 06 01 fb 13 ff 15
       -10 0 -2 1 0 6 -21 -11 4 11 6 1 -5 19 -1 21
000020 0d 06 dd f3 fd 03 ff 01 f8 fd ff 00 04 02 0e 02
       13 6 -35 -13 -3 3 -1 1 -8 -3 -1 0 4 2 14 2
000030 04 fb 00 00 06 fc f9 03 fb 04 fc 15 05 00 f9 fa
       4 -5 0 0 6 -4 -7 3 -5 4 -4 21 5 0 -7 -6
000040 fc fb fc 11 06 03 02 fd fc 04 f9 01 0b fe 06 f1
       -4 -5 -4 17 6 3 2 -3 -4 4 -7 1 11 -2 6 -15
000050 05 08 0b 06 07 c0 00 01 1e 0a 01 f8 ff fa 00 fd
       5 8 11 6 7 -64 0 1 30 10 1 -8 -1 -6 0 -3
000060 ff 06 01 fe 03 f9 fc 01 00 f9 fe 03 02 02 ff ff
       -1 6 1 -2 3 -7 -4 1 0 -7 -2 3 2 2 -1 -1
000070 ed ff fa 06 07 ff 01 08 01 07 fb f9 04 06 fe fb
       -19 -1 -6 6 7 -1 1 8 1 7 -5 -7 4 6 -2 -5
000080 f9 00 fe fd f6 00 01 01 fd fd 07 fc 02 06 03 04
       -7 0 -2 -3 -10 0 1 1 -3 -3 7 -4 2 6 3 4
000090 1a 1d ee eb 36 0c f3 10 0f 01 1f 0e 00 10 f2 0e
       26 29 -18 -21 54 12 -13 16 15 1 31 14 0 16 -14 14
0000a0 e7 06 14 10 0c 37 0b 1d fc fa fb de 00 d7 f2 f1
       -25 6 20 16 12 55 11 29 -4 -6 -5 -34 0 -41 -14 -15
0000b0 f0 f7 f5 f7 17 07 08 12 17 1f 05 f4 07 0c f1 05
       -16 -9 -11 -9 23 7 8 18 23 31 5 -12 7 12 -15 5
0000c0 00 3f 16 f6 ff fd 05 13 0a 17 ee 10 09 eb 2c 12
       0 63 22 -10 -1 -3 5 19 10 23 -18 16 9 -21 44 18
0000d0 08 28 25 d5 24 1f 36 33 fe 0e fa ea f0 0e e7 f7
       8 40 37 -43 36 31 54 51 -2 14 -6 -22 -16 14 -25 -9
0000e0 1c 06 15 13 15 f1 3b 04 1c 13 10 05 02 f4 c0 f4
       28 6 21 19 21 -15 59 4 28 19 16 5 2 -12 -64 -12
0000f0 0b fc e8 03 17 0a 15 16 10 00 ee ec 26 fd 06 fc
       11 -4 -24 3 23 10 21 22 16 0 -18 -20 38 -3 6 -4

onnx::Conv_878_scale f4 [14]
000000 bb 2a 0f 3c 8b fe 75 3c b4 28 8d 3c 70 f9 01 3c
       0.008738215 0.015014301 0.017231323 0.007933006
000010 2b bc 7a 3c 31 27 8f 3c dd 22 ea 3b 66 59 ac 3b
       0.015303652 0.017474743 0.0071452693 0.0052596806
000020 13 58 4e 3c f0 1c 18 3c 6b 58 f7 3b 15 77 85 3c
       0.012594241 0.009284243 0.007548382 0.016292134
000030 8b 38 b5 3b 5b 26 a2 3b
       0.005530422 0.00494842

onnx::Conv_878_quantized i1 [14, 18, 1, 1]
000000 fd 09 e4 08 11 db 40 01 f9 df de 04 05 fb da f7
       -3 9 -28 8 17 -37 64 1 -7 -33 -34 4 5 -5 -38 -9
000010 f9 fa f6 f9 40 fc 08 f3 f4 f3 0e ef ff e8 fc 0b
       -7 -6 -10 -7 64 -4 8 -13 -12 -13 14 -17 -1 -24 -4 11
000020 12 10 09 17 ea 09 03 c0 0d 1a 08 e8 ff 13 14 09
       18 16 9 23 -22 9 3 -64 13 26 8 -24 -1 19 20 9
000030 01 05 00 03 00 0f 12 08 fd 0e fb 17 25 c0 f5 f3
       1 5 0 3 0 15 18 8 -3 14 -5 23 37 -64 -11 -13
000040 fb 02 f2 19 02 dd 09 18 11 ec 1b 08 ee ea fb f0
       -5 2 -14 25 2 -35 9 24 17 -20 27 8 -18 -22 -5 -16
000050 d5 f4 d9 25 05 f6 c0 dd ff f7 ff fb c0 01 02 01
       -43 -12 -39 37 5 -10 -64 -35 -1 -9 -1 -5 -64 1 2 1
000060 fe ea 05 0d 04 23 ff ff f0 01 e9 08 02 e4 ea 10
       -2 -22 5 13 4 35 -1 -1 -16 1 -23 8 2 -28 -22 16
000070 10 02 08 ea 0d de 03 10 f0 05 f5 f4 c0 1c 02 2c
       16 2 8 -22 13 -34 3 16 -16 5 -11 -12 -64 28 2 44
000080 03 d3 ec 05 22 d0 20 f1 00 26 16 c6 2a f2 2c c0
       3 -45 -20 5 34 -48 32 -15 0 38 22 -58 42 -14 44 -64
000090 04 c0 fb 00 ec ff f2 ef f9 05 f3 f3 ff f6 04 d5
       4 -64 -5 0 -20 -1 -14 -17 -7 5 -13 -13 -1 -10 4 -43
0000a0 10 e5 cf 40 0a c2 f5 e9 0f 05 16 11 c7 ea df c8
       16 -27 -49 64 10 -62 -11 -23 15 5 22 17 -57 -22 -33 -56
0000b0 21 11 15 17 fd d2 0a 18 0c fc ff d1 d0 ed f2 0a
       33 17 21 23 -3 -46 10 24 12 -4 -1 -47 -48 -19 -14 10
0000c0 05 eb 13 c0 d8 25 0b f1 eb 0a 06 f4 00 e8 f6 07
       5 -21 19 -64 -40 37 11 -15 -21 10 6 -12 0 -24 -10 7
0000d0 f7 2c ec fb cf 40 f3 fc f6 02 f0 0b ef e1 f4 09
       -9 44 -20 -5 -49 64 -13 -4 -10 2 -16 11 -17 -31 -12 9
0000e0 e6 0a c0 ee f2 0d dc 23 ed e2 17 08 0b 05 38 40
       -26 10 -64 -18 -14 13 -36 35 -19 -30 23 8 11 5 56 64
0000f0 08 02 0f 1a df ff f3 0a 11 e8 16 25
       8 2 15 26 -33 -1 -13 10 17 -24 22 37

onnx::Conv_881_scale f4 [18]
000000 82 f0 fd 3b 24 b3 88 3b 9c 0e 3f 3b 5c 37 dd 3b
       0.007749618 0.004171746 0.0029152995 0.006750984
000010 01 7d 07 3b e1 ed 67 3b 08 d6 60 3b 90 9d 3b 3b
       0.0020673873 0.003538959 0.003430726 0.002862785
000020 fe 66 80 3b c8 73 3d 3b 8b 7f 94 3b e5 1c 82 3b
       0.0039185276 0.0028908122 0.004531806 0.0039707297
000030 da dc 87 3b 5c 86 9f 3b bb e3 56 3b 1b 9e 68 3b
       0.0041462006 0.004868312 0.0032789547 0.0035494629
000040 b9 60 0a 3c a2 65 33 3b
       0.008445912 0.002737381

onnx::Conv_881_quantized i1 [18, 14, 3, 3]
000000 fc 00 fb 00 09 02 09 06 0a fa f6 fb 05 f0 e8 01
       -4 0 -5 0 9 2 9 6 10 -6 -10 -5 5 -16 -24 1
000010 08 f9 04 f1 ea fe 1e 13 04 c1 f3 01 05 f5 fb f5
       8 -7 4 -15 -22 -2 30 19 4 -63 -13 1 5 -11 -5 -11
000020 0c f7 0e f5 04 ff fd 05 f9 da fc 12 f9 fc 03 06
       12 -9 14 -11 4 -1 -3 5 -7 -38 -4 18 -7 -4 3 6
000030 fb 03 0a 07 f5 01 01 f6 fa 0f ee f4 09 10 fc fc
       -5 3 10 7 -11 1 1 -10 -6 15 -18 -12 9 16 -4 -4
000040 14 18 f0 c0 f6 f0 13 fa 04 09 f6 fa 03 fd fd fa
       20 24 -16 -64 -10 -16 19 -6 4 9 -10 -6 3 -3 -3 -6
000050 01 02 f8 0e 0b ed e4 ff d0 f2 f6 11 f8 fb 3c 15
       1 2 -8 14 11 -19 -28 -1 -48 -14 -10 17 -8 -5 60 21
000060 08 c9 01 fd 02 0c f8 e9 f5 0b 01 f9 fc fa fd f2
       8 -55 1 -3 2 12 -8 -23 -11 11 1 -7 -4 -6 -3 -14
000070 e9 f9 03 1d 04 fe ee 05 08 10 0b 0d 12 07 00 fc
       -23 -7 3 29 4 -2 -18 5 8 16 11 13 18 7 0 -4
000080 08 ff 29 e8 f6 00 fd 08 f3 0a fe fa 03 18 1a 0f
       8 -1 41 -24 -10 0 -3 8 -13 10 -2 -6 3 24 26 15
000090 eb 06 f8 0d 21 11 f9 0f fe f6 dd ed ef 2b 12 f6
       -21 6 -8 13 33 17 -7 15 -2 -10 -35 -19 -17 43 18 -10
0000a0 15 11 04 e8 f4 d1 ff 40 f7 3c 1b 0f 16 0f 17 0d
       21 17 4 -24 -12 -47 -1 64 -9 60 27 15 22 15 23 13
0000b0 f5 05 09 04 fb 0e 01 00 09 13 04 ec 02 1e 05 04
       -11 5 9 4 -5 14 1 0 9 19 4 -20 2 30 5 4
0000c0 08 0e 01 0a e6 12 f7 f1 ff 2b 1b f0 15 0f eb eb
       8 14 1 10 -26 18 -9 -15 -1 43 27 -16 21 15 -21 -21
0000d0 08 f0 d5 08 d6 ed f2 fd 08 fb 09 d8 ec 0b f4 06
       8 -16 -43 8 -42 -19 -14 -3 8 -5 9 -40 -20 11 -12 6
0000e0 16 05 00 ea 2b 26 db f6 f1 f4 09 fc 02 f8 eb 05
       22 5 0 -22 43 38 -37 -10 -15 -12 9 -4 2 -8 -21 5
0000f0 09 f4 0d 15 fc 00 fc f3 1a 07 02 1d fe c1 dd fd
       9 -12 13 21 -4 0 -4 -13 26 7 2 29 -2 -63 -35 -3

onnx::Conv_884_scale f4 [16]
000000 5e 11 21 3c 4e d0 24 3b f1 3c a1 3b 5c 42 b4 3b
       0.009830801 0.0025148573 0.004920595 0.0055010747
000010 d0 b6 43 3c bd 86 cd 3b fa cf 07 3b b8 82 52 3c
       0.011945441 0.0062721656 0.002072333 0.012848549
000020 4e 40 b7 3b 2a 38 95 3b fe a4 89 3b 53 61 d2 3b
       0.0055923825 0.0045538144 0.004200577 0.0064202934
000030 df e2 72 3b 90 56 d4 3b 12 7a 93 3b 99 c3 f8 3a
       0.0037061495 0.0064800456 0.004500636 0.0018979191

onnx::Conv_884_quantized i1 [16, 30, 1, 1]
000000 fb f4 00 f9 f8 02 e6 f5 f5 ef 08 06 fd 1c fe fd
       -5 -12 0 -7 -8 2 -26 -11 -11 -17 8 6 -3 28 -2 -3
000010 fb 0d f0 ed fd 00 02 0b 05 e8 fb 40 14 f9 06 d2
       -5 13 -16 -19 -3 0 2 11 5 -24 -5 64 20 -7 6 -46
000020 f3 0a ea d1 fe 1b 07 ff c0 20 f7 ea c7 ef 10 0e
       -13 10 -22 -47 -2 27 7 -1 -64 32 -9 -22 -57 -17 16 14
000030 03 f2 07 de f4 0b ed f9 05 f5 2c e7 05 ee f9 fb
       3 -14 7 -34 -12 11 -19 -7 5 -11 44 -25 5 -18 -7 -5
000040 f7 fc fa 09 01 fc fb 02 00 0b ff 00 fb f1 f5 e3
       -9 -4 -6 9 1 -4 -5 2 0 11 -1 0 -5 -15 -11 -29
000050 01 dc 14 0a ff df c0 0e 0d f0 f4 f6 23 fe 08 f8
       1 -36 20 10 -1 -33 -64 14 13 -16 -12 -10 35 -2 8 -8
000060 08 e0 0a f2 fe 1b fc e9 fe ea 11 14 dd 02 02 02
       8 -32 10 -14 -2 27 -4 -23 -2 -22 17 20 -35 2 2 2
000070 fb 01 10 fe f8 c4 c0 e3 fb 00 1f 01 fa fa 0b f9
       -5 1 16 -2 -8 -60 -64 -29 -5 0 31 1 -6 -6 11 -7
000080 03 fa 01 12 fd fc 06 00 c0 fb 05 02 ff 09 00 fe
       3 -6 1 18 -3 -4 6 0 -64 -5 5 2 -1 9 0 -2
000090 fd 02 01 fc ff 00 06 01 05 09 03 00 f8 ea 09 10
       -3 2 1 -4 -1 0 6 1 5 9 3 0 -8 -22 9 16
0000a0 e4 f8 f6 06 03 0c 06 f1 04 05 fe ff f4 0a 40 f2
       -28 -8 -10 6 3 12 6 -15 4 5 -2 -1 -12 10 64 -14
0000b0 00 f8 02 0a f7 0d ee fb 17 ff c6 ce fb 09 15 11
       0 -8 2 10 -9 13 -18 -5 23 -1 -58 -50 -5 9 21 17
0000c0 f7 e4 01 ff e6 29 e1 f2 fe ed 05 04 fb fb 40 1f
       -9 -28 1 -1 -26 41 -31 -14 -2 -19 5 4 -5 -5 64 31
0000d0 ef e8 05 ff f7 f8 00 ff f6 ee c0 fe f2 01 e3 fe
       -17 -24 5 -1 -9 -8 0 -1 -10 -18 -64 -2 -14 1 -29 -2
0000e0 13 fb f6 f5 fd fc 00 02 fe ff 04 ff ff ff 01 ff
       19 -5 -10 -11 -3 -4 0 2 -2 -1 4 -1 -1 -1 1 -1
0000f0 06 e9 f6 00 03 ff 1d f3 f2 0a f5 02 f8 07 f3 e9
       6 -23 -10 0 3 -1 29 -13 -14 10 -11 2 -8 7 -13 -23

onnx::Conv_887_scale f4 [18]
000000 6e 97 2f 3b 97 7a 17 3b 2c 05 38 3b 6c 4c e5 3a
       0.002679314 0.002311384 0.0028079255 0.0017494089
000010 7c e1 41 3b b8 53 bb 3b 45 c5 c7 3a 2e 41 cc 3a
       0.0029583862 0.005716767 0.0015241286 0.001558339
000020 10 86 89 3b 0f a9 95 3b fa b3 35 3c 84 7e af 3b
       0.0041968897 0.0045672725 0.011090273 0.005355658
000030 50 c6 a8 3b 6b 24 64 3b 0a f0 74 3b 90 b0 3a 3b
       0.005150594 0.0034811746 0.003737452 0.0028486587
000040 2d f0 c6 3a eb a8 90 3b
       0.0015177779 0.004414668

onnx::Conv_887_quantized i1 [18, 16, 3, 3]
000000 06 ff f7 03 fb f3 fb ec eb 06 0a 03 07 0e 10 0b
       6 -1 -9 3 -5 -13 -5 -20 -21 6 10 3 7 14 16 11
000010 08 0a 0b 1e 17 18 40 3a 17 37 32 03 00 02 f7 ff
       8 10 11 30 23 24 64 58 23 55 50 3 0 2 -9 -1
000020 06 f1 fa fb 00 fd 03 07 fa 02 01 02 00 fd 01 f8
       6 -15 -6 -5 0 -3 3 7 -6 2 1 2 0 -3 1 -8
000030 fc f1 f1 f8 f6 f3 ef e4 e5 ed e4 e2 e5 dc dc fd
       -4 -15 -15 -8 -10 -13 -17 -28 -27 -19 -28 -30 -27 -36 -36 -3
000040 fc 07 00 fd 02 ff 07 03 05 18 16 16 21 1c 15 1e
       -4 7 0 -3 2 -1 7 3 5 24 22 22 33 28 21 30
000050 17 ff 0f 15 05 10 0f 00 fd 01 01 02 fd 00 06 f4
       23 -1 15 21 5 16 15 0 -3 1 1 2 -3 0 6 -12
000060 f5 f2 f1 f9 ea f7 02 03 fc ff 09 03 ee e5 ea e5
       -11 -14 -15 -7 -22 -9 2 3 -4 -1 9 3 -18 -27 -22 -27
000070 dd e4 df da e4 14 0e 0f 0f 11 0e 0b 12 10 08 09
       -35 -28 -33 -38 -28 20 14 15 15 17 14 11 18 16 8 9
000080 14 fd f8 0b f3 ed 01 fa e8 f1 f7 dc f0 06 fb fe
       20 -3 -8 11 -13 -19 1 -6 -24 -15 -9 -36 -16 6 -5 -2
000090 ff 06 00 ff fe fc f8 fd fb 05 06 01 0c 1f 0f 03
       -1 6 0 -1 -2 -4 -8 -3 -5 5 6 1 12 31 15 3
0000a0 ff fc 00 06 05 01 09 1c 09 12 18 f2 fa f9 ef f4
       -1 -4 0 6 5 1 9 28 9 18 24 -14 -6 -7 -17 -12
0000b0 f5 f0 f2 f4 ff fb fc 05 07 05 fe 05 fd fe f7 07
       -11 -16 -14 -12 -1 -5 -4 5 7 5 -2 5 -3 -2 -9 7
0000c0 03 ee ef 09 fb fc fd ef e7 f4 ec e9 f2 ee ef fc
       3 -18 -17 9 -5 -4 -3 -17 -25 -12 -20 -23 -14 -18 -17 -4
0000d0 00 f5 fd 16 00 08 03 fe ef e2 ec e6 d8 e7 f0 e2
       0 -11 -3 22 0 8 3 -2 -17 -30 -20 -26 -40 -25 -16 -30
0000e0 f0 f1 d1 db fe e0 e6 13 13 11 fd 0c f8 10 33 1d
       -16 -15 -47 -37 -2 -32 -26 19 19 17 -3 12 -8 16 51 29
0000f0 fe 05 f9 0f 05 02 ff 02 f5 fc fe ff ed ed f0 ff
       -2 5 -7 15 5 2 -1 2 -11 -4 -2 -1 -19 -19 -16 -1

onnx::Conv_890_scale f4 [20]
000000 5c fc 97 3a b0 2f f2 3a 0b 55 e1 3a 9c 9f ba 3a
       0.0011595595 0.0018477347 0.0017191482 0.0014238241
000010 57 62 8c 3a 73 72 d2 3a 22 10 32 3b 2d 74 ee 3a
       0.001071046 0.0016055837 0.002717026 0.0018192582
000020 91 cb 1b 3a a1 ba 93 3a 7d c0 d4 3a 09 39 c6 3a
       0.00059431145 0.001127083 0.0016231682 0.0015123199
000030 56 21 3e 3a 2c ba af 3a c8 f9 b6 3a e2 b3 a9 3a
       0.0007252892 0.0013406924 0.0013959939 0.0012947286
000040 a3 f5 23 3b 8a 6b e7 3a f2 5f e8 3a e4 55 79 3b
       0.0025018237 0.001765595 0.0017728789 0.003804558

onnx::Conv_890_quantized i1 [20, 18, 1, 1]
000000 14 27 cf f5 00 1c 1e ce 08 15 15 fe ed 07 e2 ce
       20 39 -49 -11 0 28 30 -50 8 21 21 -2 -19 7 -30 -50
000010 40 0e 09 1f de ee f8 06 40 fd f1 15 04 f7 18 13
       64 14 9 31 -34 -18 -8 6 64 -3 -15 21 4 -9 24 19
000020 fa 1b 32 dc e8 0e d8 1a de c0 0a e0 d8 0f f1 f5
       -6 27 50 -36 -24 14 -40 26 -34 -64 10 -32 -40 15 -15 -11
000030 f7 f9 04 f3 31 dc d8 02 fd ed fd 17 03 25 30 35
       -9 -7 4 -13 49 -36 -40 2 -3 -19 -3 23 3 37 48 53
000040 f3 40 1d 1f f7 f4 ef c4 31 0f d1 11 0d eb 1a e1
       -13 64 29 31 -9 -12 -17 -60 49 15 -47 17 13 -21 26 -31
000050 f1 40 1e c0 fb 0d 25 17 01 f0 15 de fa ef ea 0b
       -15 64 30 -64 -5 13 37 23 1 -16 21 -34 -6 -17 -22 11
000060 40 fc 3a 0a fa 1f 0f 13 eb e1 06 e5 ed c5 e3 fa
       64 -4 58 10 -6 31 15 19 -21 -31 6 -27 -19 -59 -29 -6
000070 02 c0 f6 ed e0 00 fb 14 f6 01 fa 0e d7 18 e1 0a
       2 -64 -10 -19 -32 0 -5 20 -10 1 -6 14 -41 24 -31 10
000080 d5 ec 11 f0 fd c0 e0 fa 0e 2f 19 f7 ff da f9 05
       -43 -20 17 -16 -3 -64 -32 -6 14 47 25 -9 -1 -38 -7 5
000090 0c ea d7 00 1e fc 24 40 e1 18 00 20 d4 15 fe f2
       12 -22 -41 0 30 -4 36 64 -31 24 0 32 -44 21 -2 -14
0000a0 e9 c5 ea 2f 20 3a 1a 1d 32 00 40 0e 1e 31 fe 2d
       -23 -59 -22 47 32 58 26 29 50 0 64 14 30 49 -2 45
0000b0 1a 38 2e 2f 0f ee 0a 0d fc e9 fe 19 f1 21 05 04
       26 56 46 47 15 -18 10 13 -4 -23 -2 25 -15 33 5 4
0000c0 e0 40 f8 08 07 1d d2 0f f6 04 0e 08 d6 de 01 f5
       -32 64 -8 8 7 29 -46 15 -10 4 14 8 -42 -34 1 -11
0000d0 08 0d 09 c0 06 01 cb c7 01 28 ca 05 2a 1d 02 0b
       8 13 9 -64 6 1 -53 -57 1 40 -54 5 42 29 2 11
0000e0 d3 1b 21 c0 12 e7 21 29 00 ca 13 40 e1 f4 e9 dd
       -45 27 33 -64 18 -25 33 41 0 -54 19 64 -31 -12 -23 -35
0000f0 20 30 e3 23 0c e8 28 3e 0f 40 05 cd 12 f0 ce 16
       32 48 -29 35 12 -24 40 62 15 64 5 -51 18 -16 -50 22

onnx::Conv_893_scale f4 [16]
000000 c8 0c 74 3c f2 10 cb 3c 0b 9a ef 3b 73 33 4c 3c
       0.014895625 0.024788354 0.0073120645 0.012463438
000010 76 f0 91 3c c3 6a d0 3b b1 88 bd 3b 3b f2 47 3c
       0.017814856 0.0063603832 0.005784117 0.012203748
000020 c5 ab de 3b 01 a2 54 3c 43 9c 3b 3c fc be f3 3b
       0.006795379 0.012978078 0.01145083 0.0074385386
000030 c2 99 9d 3b fb 78 df 3b e7 2c dc 3c 34 a7 9c 3c
       0.004809589 0.006819842 0.02687688 0.019122697

onnx::Conv_893_quantized i1 [16, 18, 1, 1]
000000 0c e3 02 0c f4 c0 fb ea 13 08 0b 04 fc 0b 20 ed
       12 -29 2 12 -12 -64 -5 -22 19 8 11 4 -4 11 32 -19
000010 02 f9 fe 08 fd 02 03 03 02 09 fd 04 02 02 0c f2
       2 -7 -2 8 -3 2 3 3 2 9 -3 4 2 2 12 -14
000020 c0 06 05 ff f8 f6 05 fd da fc f6 02 c4 12 f8 f6
       -64 6 5 -1 -8 -10 5 -3 -38 -4 -10 2 -60 18 -8 -10
000030 0f 04 0d c0 25 10 f8 fb f5 ee f4 c0 06 f6 14 f8
       15 4 13 -64 37 16 -8 -5 -11 -18 -12 -64 6 -10 20 -8
000040 02 02 11 f8 c2 f7 03 f9 fb c0 03 f8 04 c6 07 00
       2 2 17 -8 -62 -9 3 -7 -5 -64 3 -8 4 -58 7 0
000050 11 03 fe fd 33 0a 0b 0a 08 01 0e d5 0c 25 d1 01
       17 3 -2 -3 51 10 11 10 8 1 14 -43 12 37 -47 1
000060 38 1f c0 f9 f1 ea 1d 01 f1 e0 00 f5 cc 07 d9 32
       56 31 -64 -7 -15 -22 29 1 -15 -32 0 -11 -52 7 -39 50
000070 3c 05 fe 37 f6 c1 ed e6 f7 c4 f7 40 40 c2 ff c9
       60 5 -2 55 -10 -63 -19 -26 -9 -60 -9 64 64 -62 -1 -55
000080 08 f1 f5 e9 16 eb f3 09 01 05 ca 01 40 0b 08 f0
       8 -15 -11 -23 22 -21 -13 9 1 5 -54 1 64 11 8 -16
000090 f8 fb 01 f8 f5 04 fd 05 ff fe 40 0a 12 03 0c 14
       -8 -5 1 -8 -11 4 -3 5 -1 -2 64 10 18 3 12 20
0000a0 f8 01 04 ee 1d 06 08 2a 0d 06 26 04 07 fc e3 05
       -8 1 4 -18 29 6 8 42 13 6 38 4 7 -4 -29 5
0000b0 40 18 fb 05 f6 00 f8 24 eb c0 02 0a 17 14 fe 07
       64 24 -5 5 -10 0 -8 36 -21 -64 2 10 23 20 -2 7
0000c0 df fe 0c 0e 01 f8 06 11 f2 f7 f3 2b 1e 21 fd 06
       -33 -2 12 14 1 -8 6 17 -14 -9 -13 43 30 33 -3 6
0000d0 0d 03 ea 17 c1 c0 e2 f9 02 c7 df c5 2e 03 1f 22
       13 3 -22 23 -63 -64 -30 -7 2 -57 -33 -59 46 3 31 34
0000e0 05 08 f4 ff ef c0 fa f7 2d f0 11 0b dc e0 c0 07
       5 8 -12 -1 -17 -64 -6 -9 45 -16 17 11 -36 -32 -64 7
0000f0 fd 3b 10 12 03 14 1c 21 0d f1 2b ff fb 01 fe c0
       -3 59 16 18 3 20 28 33 13 -15 43 -1 -5 1 -2 -64

onnx::Conv_896_scale f4 [16]
000000 41 66 8c 3c 39 72 8a 3c 5f 67 34 3c 75 dd 32 3c
       0.017138602 0.016900169 0.011010974 0.010917057
000010 12 38 5d 3c 0b b5 3b 3c 9c 34 60 3c 53 11 9e 3c
       0.013502138 0.011456738 0.013684418 0.01929537
000020 36 0c f5 3c 94 13 60 3c 17 ea 8c 3c 5d 7b 72 3c
       0.02991305 0.013676543 0.017201466 0.01479992
000030 1b 86 57 3c 2a 1c 77 3c 76 7b 7e 3c a2 02 b4 3c
       0.013154532 0.015082398 0.015532365 0.021973912

onnx::Conv_896_quantized i1 [16, 20, 1, 1]
000000 0e 1d f0 14 08 d0 40 e1 0f c5 f7 0c 21 04 3a 27
       14 29 -16 20 8 -48 64 -31 15 -59 -9 12 33 4 58 39
000010 f3 d7 eb 05 f2 0f ed 1b c0 0a 1e 14 f0 ef 09 13
       -13 -41 -21 5 -14 15 -19 27 -64 10 30 20 -16 -17 9 19
000020 03 0c 23 1f 11 fc 14 13 c0 df d9 e3 23 18 09 f5
       3 12 35 31 17 -4 20 19 -64 -33 -39 -29 35 24 9 -11
000030 ef d7 22 11 cc 0f 3e e9 ee de d0 e6 f7 2f 06 22
       -17 -41 34 17 -52 15 62 -23 -18 -34 -48 -26 -9 47 6 34
000040 f2 40 02 12 32 f8 ea c7 33 15 17 c3 20 08 d8 e1
       -14 64 2 18 50 -8 -22 -57 51 21 23 -61 32 8 -40 -31
000050 e6 de f3 02 fc df f9 10 f8 fc 1d f4 c0 05 0a 04
       -26 -34 -13 2 -4 -33 -7 16 -8 -4 29 -12 -64 5 10 4
000060 04 08 06 04 f8 03 03 09 0a c0 cc d2 34 ee d1 0a
       4 8 6 4 -8 3 3 9 10 -64 -52 -46 52 -18 -47 10
000070 2e fc ce d8 da 14 e6 1a 0e fc fc f7 14 c0 ed e2
       46 -4 -50 -40 -38 20 -26 26 14 -4 -4 -9 20 -64 -19 -30
000080 e8 da f3 d3 1d f6 f5 05 12 f3 26 18 09 fd f2 fb
       -24 -38 -13 -45 29 -10 -11 5 18 -13 38 24 9 -3 -14 -5
000090 0c 06 c0 0f ef c4 19 f0 2c 05 f2 08 eb e8 f2 08
       12 6 -64 15 -17 -60 25 -16 44 5 -14 8 -21 -24 -14 8
0000a0 14 1d f8 f7 07 eb 08 08 f2 09 01 03 f2 ec 02 11
       20 29 -8 -9 7 -21 8 8 -14 9 1 3 -14 -20 2 17
0000b0 40 f0 09 03 f5 1c ff f7 f3 23 0e 03 40 11 05 e0
       64 -16 9 3 -11 28 -1 -9 -13 35 14 3 64 17 5 -32
0000c0 f4 01 e4 24 03 f9 e3 03 f5 fa f9 e9 03 fe c0 04
       -12 1 -28 36 3 -7 -29 3 -11 -6 -7 -23 3 -2 -64 4
0000d0 ef d2 fb f4 1a e4 c3 23 fe 04 d3 ee f4 fc 00 30
       -17 -46 -5 -12 26 -28 -61 35 -2 4 -45 -18 -12 -4 0 48
0000e0 04 15 c0 0f 06 13 18 17 0e fe 10 e5 15 06 13 08
       4 21 -64 15 6 19 24 23 14 -2 16 -27 21 6 19 8
0000f0 01 ca eb fe 11 df ee c0 f0 1c ef d9 d4 d7 d7 33
       1 -54 -21 -2 17 -33 -18 -64 -16 28 -17 -39 -44 -41 -41 51

onnx::Conv_899_scale f4 [20]
000000 08 46 01 3b 90 03 fd 3a d1 91 eb 3a 1e 0e e7 3a
       0.001972558 0.001930343 0.0017972534 0.0017628109
000010 5c 6c 12 3b 11 67 a6 3a 96 65 df 3a 21 7d 09 3b
       0.002234242 0.0012695511 0.0017043825 0.0020979124
000020 fa e2 a0 3a 8b af a4 3a d7 23 8e 3a c3 cb 57 3a
       0.0012274676 0.0012564523 0.0010844421 0.0008231962
000030 8e 24 89 3b 33 3f ed 3a 39 30 e2 3a d2 1f f4 3a
       0.004185266 0.00181005 0.0017256803 0.0018625206
000040 4a 72 af 3a 55 24 12 3b ac af f3 3a 75 41 1f 3b
       0.0013385501 0.0022299488 0.0018591783 0.002430049

onnx::Conv_899_quantized i1 [20, 16, 3, 3]
000000 0b ff 05 04 07 07 0d f1 05 ff ef 00 e1 07 12 fa
       11 -1 5 4 7 7 13 -15 5 -1 -17 0 -31 7 18 -6
000010 ee f9 f2 ef 34 f4 05 2b 0e 03 40 f9 0b 02 03 01
       -18 -7 -14 -17 52 -12 5 43 14 3 64 -7 11 2 3 1
000020 01 0a f1 10 fb 07 f1 13 dd 0b 0a 15 12 0f 11 0d
       1 10 -15 16 -5 7 -15 19 -35 11 10 21 18 15 17 13
000030 10 ee 08 13 09 08 01 fe fb 0f 0e 10 0a 21 0f ec
       16 -18 8 19 9 8 1 -2 -5 15 14 16 10 33 15 -20
000040 f6 f8 ee 1a 19 03 f1 e7 fb ee de f1 f1 ea f5 f9
       -10 -8 -18 26 25 3 -15 -25 -5 -18 -34 -15 -15 -22 -11 -7
000050 fe 0a ed ec fe 26 dd 0a 1e 0c ee fb 03 00 fd ee
       -2 10 -19 -20 -2 38 -35 10 30 12 -18 -5 3 0 -3 -18
000060 f7 0c 10 17 f9 fc 1f 40 fa 0f 1c 07 f1 f3 03 f7
       -9 12 16 23 -7 -4 31 64 -6 15 28 7 -15 -13 3 -9
000070 02 f1 f8 06 03 fa 0d 04 15 f1 e7 07 14 ff ff f2
       2 -15 -8 6 3 -6 13 4 21 -15 -25 7 20 -1 -1 -14
000080 0a f7 e3 fa 0c 01 ed ec 02 01 d7 d9 fb 08 e6 e5
       10 -9 -29 -6 12 1 -19 -20 2 1 -41 -39 -5 8 -26 -27
000090 0b 11 0d f7 ff fa 02 ff fe fe f1 f1 01 ff f4 12
       11 17 13 -9 -1 -6 2 -1 -2 -2 -15 -15 1 -1 -12 18
0000a0 08 06 00 f2 c9 40 2d 15 31 24 0d 0b f7 03 fd 12
       8 6 0 -14 -55 64 45 21 49 36 13 11 -9 3 -3 18
0000b0 0b 05 01 04 f6 f2 09 08 09 17 00 04 ff 10 0e 0e
       11 5 1 4 -10 -14 9 8 9 23 0 4 -1 16 14 14
0000c0 fa e7 f7 f7 ec f3 fe 16 22 e8 e4 ed fb ee f0 01
       -6 -25 -9 -9 -20 -13 -2 22 34 -24 -28 -19 -5 -18 -16 1
0000d0 02 0a 05 f7 ef 01 fc f5 ff 15 f9 12 1a 0f 0a f3
       2 10 5 -9 -17 1 -4 -11 -1 21 -7 18 26 15 10 -13
0000e0 09 09 f3 0c 01 0a 02 10 0d 0b 00 0e 05 00 05 05
       9 9 -13 12 1 10 2 16 13 11 0 14 5 0 5 5
0000f0 00 f8 06 09 0a 15 ee fe 0e f3 f1 ea ef e7 e4 07
       0 -8 6 9 10 21 -18 -2 14 -13 -15 -22 -17 -25 -28 7

onnx::Conv_902_scale f4 [16]
000000 0f 63 0e 3c 3a ff 41 3c 1f 81 56 3c 2e f6 8a 3c
       0.00869061 0.011840636 0.013092308 0.01696309
000010 d9 a4 2a 3c bd 73 0f 3c 79 00 ba 3b 9f 5d 34 3c
       0.010415279 0.0087556215 0.005676326 0.011008649
000020 c7 f1 2b 3c 8f 4b 5f 3c 63 89 74 3c 04 bb b4 3c
       0.010494656 0.013628854 0.014925334 0.022061832
000030 fa 4b 0d 3c 5a 59 60 3c 2f 05 7c 3c 45 40 c9 3b
       0.008624071 0.013693178 0.015382095 0.0061416947

onnx::Conv_902_quantized i1 [16, 20, 1, 1]
000000 d7 0d da 14 fb d3 de f1 2a c0 ed 09 0f 17 f8 12
       -41 13 -38 20 -5 -45 -34 -15 42 -64 -19 9 15 23 -8 18
000010 18 02 ea 06 0e 12 02 fb 1f 0b 0a 12 eb fe fc f8
       24 2 -22 6 14 18 2 -5 31 11 10 18 -21 -2 -4 -8
000020 0c fb 05 e6 f6 fb c0 00 e9 da ff f2 e9 d7 25 0b
       12 -5 5 -26 -10 -5 -64 0 -23 -38 -1 -14 -23 -41 37 11
000030 07 e7 29 f9 22 05 fa 18 da f6 40 f1 18 ec f3 f4
       7 -25 41 -7 34 5 -6 24 -38 -10 64 -15 24 -20 -13 -12
000040 00 c0 09 01 f2 fa 19 fe 11 00 f8 11 f9 fb f4 02
       0 -64 9 1 -14 -6 25 -2 17 0 -8 17 -7 -5 -12 2
000050 db f8 f7 04 0e 03 f9 f2 05 10 11 01 26 1a f7 fa
       -37 -8 -9 4 14 3 -7 -14 5 16 17 1 38 26 -9 -6
000060 09 c0 fd 11 15 c0 31 e5 c1 36 00 0e e4 20 e3 d4
       9 -64 -3 17 21 -64 49 -27 -63 54 0 14 -28 32 -29 -44
000070 10 df 0f 10 0e e0 f8 f1 cf e1 14 c0 f5 19 10 f0
       16 -33 15 16 14 -32 -8 -15 -49 -31 20 -64 -11 25 16 -16
000080 ef e4 ec f0 13 1a cb e8 06 f0 18 d6 ed 1c c0 f5
       -17 -28 -20 -16 19 26 -53 -24 6 -16 24 -42 -19 28 -64 -11
000090 00 33 0e d4 e8 fa 1a c5 09 ed e3 f6 20 c4 f5 f1
       0 51 14 -44 -24 -6 26 -59 9 -19 -29 -10 32 -60 -11 -15
0000a0 f7 07 11 0e 0f 19 e8 0e fc ff 03 f8 00 eb 15 c0
       -9 7 17 14 15 25 -24 14 -4 -1 3 -8 0 -21 21 -64
0000b0 12 0c d8 f0 f7 f5 07 f9 de de da 01 f4 c4 fe f7
       18 12 -40 -16 -9 -11 7 -7 -34 -34 -38 1 -12 -60 -2 -9
0000c0 11 ee f7 09 00 fb 40 f0 03 0d f7 d2 10 40 e4 09
       17 -18 -9 9 0 -5 64 -16 3 13 -9 -46 16 64 -28 9
0000d0 d6 f9 f0 d0 30 03 02 e9 ee fe d9 f3 f7 f0 04 fb
       -42 -7 -16 -48 48 3 2 -23 -18 -2 -39 -13 -9 -16 4 -5
0000e0 07 e4 03 02 eb 01 e2 e0 00 f6 0b c0 04 f7 14 e6
       7 -28 3 2 -21 1 -30 -32 0 -10 11 -64 4 -9 20 -26
0000f0 c2 c0 f3 e2 e8 e6 17 c7 07 c5 07 11 2c cd 16 2e
       -62 -64 -13 -30 -24 -26 23 -57 7 -59 7 17 44 -51 22 46

onnx::Conv_905_scale f4 [20]
000000 0a af 07 3b 4d ae 3f 3b 28 46 38 3b 27 14 17 3b
       0.0020703697 0.0029248178 0.0028117988 0.0023052783
000010 1c a1 27 3b c3 82 e8 3a d9 b8 18 3b 1a f3 05 3b
       0.0025578206 0.0017739165 0.0023303537 0.002043909
000020 af d3 2f 3b e4 41 f5 3a 74 d0 53 3b 00 91 c7 3a
       0.0026829054 0.0018711654 0.0032320293 0.0015225708
000030 3a ce a2 3a ca 47 ed 3a 82 f1 e4 3a 7d 72 78 3b
       0.001242108 0.001810306 0.0017466994 0.0037910037
000040 22 f9 4b 3b c6 a4 85 3b 83 51 1b 3b d1 c9 31 3b
       0.0031123837 0.0040784804 0.0023699708 0.0027128349
